…
I0626 09:06:57.302894 4793052608 evaluate_VAE_defense.py:90] Fooling rate on after adversarial defenses using VAE: 12.89%
[INFO] Fooling rate on after adversarial defenses using VAE: 12.89%
I0626 09:06:57.303341 4793052608 evaluate_VAE_defense.py:110] Plot the orignail image, perturbation, and adversarial image
[INFO] Plot the orignail image, perturbation, and adversarial image
__________________________________________________________________________________________________
Layer (type)                    Output Shape         Param #     Connected to                     
==================================================================================================
input_1 (InputLayer)            (None, 28, 28, 1)    0                                            
__________________________________________________________________________________________________
conv2d_3 (Conv2D)               (None, 28, 28, 16)   160         input_1[0][0]                    
__________________________________________________________________________________________________
max_pooling2d_3 (MaxPooling2D)  (None, 14, 14, 16)   0           conv2d_3[0][0]                   
__________________________________________________________________________________________________
conv2d_4 (Conv2D)               (None, 14, 14, 8)    1160        max_pooling2d_3[0][0]            
__________________________________________________________________________________________________
max_pooling2d_4 (MaxPooling2D)  (None, 7, 7, 8)      0           conv2d_4[0][0]                   
__________________________________________________________________________________________________
flatten_2 (Flatten)             (None, 392)          0           max_pooling2d_4[0][0]            
__________________________________________________________________________________________________
dense_3 (Dense)                 (None, 256)          100608      flatten_2[0][0]                  
__________________________________________________________________________________________________
dense_4 (Dense)                 (None, 256)          100608      flatten_2[0][0]                  
__________________________________________________________________________________________________
lambda_1 (Lambda)               (None, 256)          0           dense_3[0][0]                    
                                                                 dense_4[0][0]                    
==================================================================================================
Total params: 202,536
Trainable params: 202,536
Non-trainable params: 0
__________________________________________________________________________________________________
None
_________________________________________________________________
Layer (type)                 Output Shape              Param #   
=================================================================
input_2 (InputLayer)         (None, 256)               0         
_________________________________________________________________
dense_5 (Dense)              (None, 392)               100744    
_________________________________________________________________
reshape_1 (Reshape)          (None, 7, 7, 8)           0         
_________________________________________________________________
conv2d_5 (Conv2D)            (None, 7, 7, 8)           584       
_________________________________________________________________
up_sampling2d_1 (UpSampling2 (None, 14, 14, 8)         0         
_________________________________________________________________
conv2d_6 (Conv2D)            (None, 14, 14, 16)        1168      
_________________________________________________________________
up_sampling2d_2 (UpSampling2 (None, 28, 28, 16)        0         
_________________________________________________________________
conv2d_7 (Conv2D)            (None, 28, 28, 1)         145       
=================================================================
Total params: 102,641
Trainable params: 102,641
Non-trainable params: 0
_________________________________________________________________
None
